…
[34m[1mtrain:[0m /kaggle/working/hearsight_two_stage_dataset_train/classifier_dataset/train... found 17813 images in 28 classes вњ… 
[34m[1mval:[0m /kaggle/working/hearsight_two_stage_dataset_train/classifier_dataset/val... found 4358 images in 28 classes вњ… 
[34m[1mtest:[0m /kaggle/working/hearsight_two_stage_dataset_train/classifier_dataset/test... found 3001 images in 28 classes вњ… 
Overriding model.yaml nc=1000 with nc=28

                   from  n    params  module                                       arguments                     
  0                  -1  1       464  ultralytics.nn.modules.conv.Conv             [3, 16, 3, 2]                 
  1                  -1  1      4672  ultralytics.nn.modules.conv.Conv             [16, 32, 3, 2]                
  2                  -1  1      6640  ultralytics.nn.modules.block.C3k2            [32, 64, 1, False, 0.25]      
  3                  -1  1     36992  ultralytics.nn.modules.conv.Conv             [64, 64, 3, 2]                
  4                  -1  1     26080  ultralytics.nn.modules.block.C3k2            [64, 128, 1, False, 0.25]     
  5                  -1  1    147712  ultralytics.nn.modules.conv.Conv             [128, 128, 3, 2]              
  6                  -1  1     87040  ultralytics.nn.modules.block.C3k2            [128, 128, 1, True]           
  7                  -1  1    295424  ultralytics.nn.modules.conv.Conv             [128, 256, 3, 2]              
  8                  -1  1    346112  ultralytics.nn.modules.block.C3k2            [256, 256, 1, True]           
  9                  -1  1    249728  ultralytics.nn.modules.block.C2PSA           [256, 256, 1]                 
 10                  -1  1    366108  ultralytics.nn.modules.head.Classify         [256, 28]                     
YOLO26n-cls summary: 86 layers, 1,566,972 parameters, 1,566,972 gradients, 3.3 GFLOPs
Transferred 234/236 items from pretrained weights
[34m[1mDDP:[0m debug command /usr/bin/python3 -m torch.distributed.run --nproc_per_node 2 --master_port 39525 /root/.config/Ultralytics/DDP/_temp_bt7anme2133263451322032.py
Ultralytics 8.4.56 рџљЂ Python-3.12.12 torch-2.10.0+cu128 CUDA:0 (Tesla T4, 14913MiB)
…
